models/tmp.pth (torch_old, 427259 bytes, 4 tensors)

u_weight.weight f4 [944, 40]
0	0x3a7de44f	0.0009685205
1	0xbafbd903	-0.0019214455
2	0xbb40f5d7	-0.0029443407
3	0x3b80c3a6	0.003929573
4	0xbc1b44de	-0.009476868
5	0xbc4e8e65	-0.012607192
6	0x3c75c4e9	0.01500056
7	0x3c4dba07	0.012556559
8	0xbc56dd40	-0.013114274
9	0xbc2faede	-0.010722844
10	0x3baa1bb9	0.005191293
11	0x3a68d6ee	0.00088821247
12	0x3be3144f	0.006929911
13	0x3bdaaf15	0.0066737034
14	0x3b5734e1	0.0032837915
15	0xbc0f5889	-0.008749136
16	0xbc16d01f	-0.009204893
17	0x3ae756dc	0.0017649787
18	0x3c324849	0.010881492
19	0xbb0aa154	-0.0021153288
20	0xbc0f4aaf	-0.008745833
21	0xba4c155b	-0.00077851646
22	0x3bf72a43	0.00754288
23	0xbbef8c25	-0.0073104077
24	0xbbf689dd	-0.007523759
25	0x3b479415	0.0030453254
26	0x3bd283b4	0.0064243916
27	0xbb8cc289	-0.0042956513
28	0x3810cfa2	3.452565e-05
29	0x3be0e70b	0.00686348
30	0xbbc977c0	-0.0061483085
31	0xba3e25eb	-0.0007253575
32	0x3bde28a1	0.0067797457
33	0xbbf4ec6f	-0.007474474
34	0xbc442eb0	-0.011974022
35	0xbb3f0a78	-0.0029150527
36	0x3c1f3d5e	0.009719221
37	0xb9d0e981	-0.00039846826
38	0x3bba8a9e	0.005692794
39	0x3b15d430	0.002286207
40	0xbb816ab0	-0.0039494857
41	0xbc2cfac7	-0.010557837
42	0xbb7224b4	-0.0036948146
43	0xbc1fabd6	-0.009745559
44	0xbb7cf505	-0.0038598191
45	0x3c6c58ee	0.014425499
46	0xbb8a5a83	-0.0042222156
47	0xbc4c5a97	-0.01247277
48	0xbbc3f260	-0.005979821
49	0xbc5afdb0	-0.013366148
50	0xbc15fb9b	-0.009154226
51	0xbb8c63de	-0.004284366
52	0xbb2e9440	-0.0026638657
53	0x3b55fa30	0.0032650344
54	0x3b198f6e	0.0023431438
55	0xb9576867	-0.0002054289
56	0x3c5983f3	0.013276088
57	0xb7d51eb3	-2.5405874e-05
58	0x3c71c617	0.014756701
59	0xbbcd2b99	-0.0062613008
60	0xbb46ae6a	-0.0030316361
61	0x3bba22ca	0.0056804167
62	0xb989b1d4	-0.0002626317
63	0x3bab8542	0.0052343914
64	0xbc28d0e1	-0.010303707
65	0x3c59fe13	0.013305205
66	0x3ba2dade	0.0049699387
67	0x3aeebca9	0.0018214184
68	0xbc8be999	-0.017079161
69	0xbbcbb087	-0.006216112
70	0x3b311bae	0.0027024555
71	0xbb0fbc83	-0.002193243
72	0x3b6f5c89	0.003652366
73	0x3b2e2c85	0.0026576829
74	0x3b656af7	0.0035006383
75	0x3a93a829	0.0011265326
76	0xbbb56842	-0.00553611
77	0x3bde3841	0.0067816083
78	0xbb96f9a6	-0.004607397
79	0x3aa783e9	0.0012780401
80	0x3c8ff8e9	0.017574744
81	0x3ca10bfb	0.019659033
82	0x3b4d417b	0.0031319547
83	0xbc2aadfe	-0.0104174595
84	0xbb990dd9	-0.00467084
85	0xbc2e998f	-0.010656728
86	0x3c7dcd94	0.015490908
87	0xbb0f9ad7	-0.002191236
88	0x3bae5fd3	0.0053214817
89	0x3c0973ad	0.008389396
90	0xbc0df9e2	-0.008665534
91	0xbb12f207	-0.0022422092
92	0x3c895641	0.016764762
93	0xbc2491a5	-0.01004449
94	0x3b6a0370	0.0035707615
95	0xbc8a52b7	-0.016885145
96	0xbbdd46e6	-0.0067528365
97	0x3bceeb5c	0.006314678
98	0x3ba4e6e0	0.0050324053
99	0xbbc9cc75	-0.0061584064
100	0x3bf909ce	0.0076000458
101	0x3c537de5	0.012908434
102	0x3bb5c074	0.005546624
103	0x3c28e14a	0.010307619
104	0xbb2d732f	-0.002646636
105	0x3b4c089c	0.0031133061
106	0xbc20e3b6	-0.0098199155
107	0x3b641a1e	0.0034805606
108	0xbb7e5433	-0.003880751
109	0x3a379605	0.00070032506
110	0x3a627eaf	0.0008640093
111	0x3ba70f41	0.005098254
112	0x3a21ae3e	0.00061676267
113	0x3c438e3b	0.011935766
114	0x3c823e38	0.015898809
115	0xbb04ccc8	-0.002026366
116	0x3b941627	0.0045192423
117	0xbb59f619	-0.0033258258
118	0xbbdc549d	-0.006723954
119	0x3bdb4e98	0.0066927187
120	0xbbf7edfd	-0.007566212
121	0xbbbd6f22	-0.0057810703
122	0xbc4ed1db	-0.012623276
123	0xbc3a8317	-0.011383793
124	0xbb0f91f6	-0.0021907068
125	0x3b8d4939	0.0043117073
126	0xbbd300c9	-0.0064393026
127	0x3ab824a7	0.0014049009
128	0xbba6da6a	-0.005091955
129	0x3bb57633	0.005537772
130	0xbb13d369	-0.002255643
131	0xbc2ab086	-0.010418063
132	0x3b64ec22	0.0034930785
133	0x3b665532	0.0035145995
134	0xbbbe2941	-0.0058032577
135	0x3be9ed2e	0.0071388697
136	0xbc1ff103	-0.0097620515
137	0xbbe03ad2	-0.0068429494
138	0x3b0d8e59	0.0021599738
139	0xbc72b1bc	-0.014812883
140	0x3b0e975d	0.00217577
141	0x3b899acf	0.004199363
142	0x3c86f002	0.016471867
143	0x3c72c6ae	0.014817877
144	0xbbebf579	-0.0072008935
145	0xbc538895	-0.012910982
146	0xbbfbb8c1	-0.0076819365
147	0xbc8c49e9	-0.017125087
148	0x3a8bc08c	0.0010662242
149	0xbc9379d9	-0.018002437
150	0xbba8ed06	-0.0051552085
151	0xba5188b3	-0.0007993087
152	0x3c1ee969	0.009699204
153	0xbc295c2e	-0.010336919
154	0x3c42715c	0.011867847
155	0x3bca8987	0.0061809453
156	0xbba82bdc	-0.0051321816
157	0xbc8d4613	-0.017245328
158	0x3c4945d5	0.012284716
159	0xbb8fdd80	-0.0043904185
160	0xbaacbaae	-0.0013178193
161	0xbc1397e0	-0.009008378
162	0x3bbfcda9	0.005853374
163	0x3c04a879	0.008096808
164	0xbc4a1a8f	-0.012335434
165	0xbabc70c4	-0.0014376868
166	0x3b92e9b3	0.0044834255
167	0x3b4728e7	0.003038937
168	0xbc9e1ff4	-0.019302346
169	0xbbdd5dbc	-0.006755559
170	0x3ba62738	0.005070593
171	0xbbb6edd7	-0.005582552
172	0xb9f0bcc7	-0.00045917017
173	0x38b30837	8.536915e-05
174	0x3bf8226e	0.0075724637
175	0xbc0f99af	-0.008764668
176	0xbba3f47e	-0.005003511
177	0xbb14a607	-0.0022681968
178	0xbc1b3059	-0.009471976
179	0x3b86291c	0.004094256
180	0x3b8687c4	0.00410554
181	0x3c163460	0.009167761
182	0x3c3c73e6	0.011502242
183	0x3ca171c0	0.01970756
184	0xbc5414bb	-0.012944396
185	0xba916b54	-0.0011094608
186	0x3bd0854e	0.0063635474
187	0xbc2d22ed	-0.010567409
188	0xbb58cc9b	-0.0033080939
189	0x3c8ac595	0.016939918
190	0xb8957242	-7.126156e-05
191	0xbc6a244a	-0.014290879
192	0xbc34d2bd	-0.011036572
193	0x3bbdfbc6	0.005797836
194	0x3bb7f670	0.0056140944
195	0xbbcea1c2	-0.006305904
196	0xba09cd3d	-0.0005256718
197	0x3b543c39	0.0032384528
198	0x3c2b0319	0.01043775
199	0x3bbcbf85	0.0057601356
200	0xbc56f8bd	-0.013120827
201	0xb9ecae0e	-0.0004514311
202	0xbc22fe6d	-0.009948355
203	0xbc1c99e5	-0.009558176
204	0xbb56386e	-0.0032687443
205	0x3c395c2e	0.011313481
206	0x399796da	0.00028913358
207	0x3b118599	0.0022204875
208	0x3bb80250	0.00561551
209	0xbc550418	-0.013001464
210	0x3b5ef821	0.0034022408
211	0x3b0dce27	0.002163777
212	0xbc50a9e2	-0.012735816
213	0x3c90b3bf	0.017663835
214	0x3c01d78a	0.007924924
215	0xbc3beed0	-0.011470512
216	0xbbb81ee9	-0.005618919
217	0xbc93a79c	-0.018024258
218	0xbc29d7d4	-0.010366399
219	0x3b4e20b8	0.0031452607
220	0x3a266c94	0.0006348577
221	0xbc378a7d	-0.011202452
222	0x3c3e44d8	0.011613093
223	0xbc21def9	-0.009879821
224	0x3c799a77	0.015234581
225	0xbc04abc6	-0.008097595
226	0xba802d3e	-0.0009779108
227	0xbb5a47fe	-0.003330707
228	0xbc530b6f	-0.012881144
229	0x3c146f06	0.009059673
230	0xbaa0dcae	-0.0012272799
231	0x3b482419	0.0030539094
232	0xbc900379	-0.01757978
233	0x3bad90e0	0.0052968115
234	0x3a05aa4b	0.0005098923
235	0xb9cfed78	-0.00039659045
236	0x3c7b41c3	0.015335503
237	0x3bb4c3d7	0.00551651
238	0xb940d1b2	-0.00018388664
239	0xba17cfbb	-0.0005791147
240	0xbc64c48f	-0.013962879
241	0xbc0d7488	-0.00863374
242	0xbb60abee	-0.0034282166
243	0x3c1b5552	0.009480791
244	0x3bba3e87	0.0056837234
245	0xb9cc9258	-0.00039018947
246	0xbc15652c	-0.00911836
247	0x3b1fd0a8	0.0024385843
248	0xbb6c49b8	-0.0036054682
249	0x3c74a819	0.014932656
250	0x3c8102f2	0.015748475
251	0xbbc5f45b	-0.0060410923
252	0xbc853724	-0.016261645
253	0x38d42000	0.00010114908
254	0x3c542532	0.012948321
255	0xbbe751e4	-0.0070593227

i_weight.weight f4 [1654, 40]
0	0xbbb55aa0	-0.005534485
1	0xbbd8e000	-0.0066184998
2	0x3b8ab9e9	0.004233588
3	0xba07e2f9	-0.0005183663
4	0x3c12ef6d	0.008968216
5	0xbb99582e	-0.0046797013
6	0x3c850119	0.016235875
7	0xba36f75b	-0.0006979608
8	0xbc1994b0	-0.009373829
9	0x3b9df034	0.004819894
10	0x3827dfa4	4.0024184e-05
11	0xbac0501c	-0.0014672312
12	0xbb111715	-0.0022139002
13	0xbc68fb66	-0.014220094
14	0xbb347b32	-0.002753925
15	0xbb8238fb	-0.0039740778
16	0x3b5f827b	0.0034104872
17	0xbb3143c4	-0.0027048448
18	0x3c514005	0.012771611
19	0x3c2d614d	0.01058228
20	0x3a80cd30	0.0009826776
21	0x3bca9b97	0.0061830985
22	0xbc131647	-0.008977479
23	0xbc9618f4	-0.018322445
24	0xbbe0a86b	-0.0068560145
25	0xbc61934e	-0.01376803
26	0x3c93b9d3	0.018032944
27	0x3bf7c1dc	0.0075609516
28	0xba2fcbe7	-0.0006706104
29	0xbc17d93f	-0.009268104
30	0xbb4fe2cb	-0.0031720873
31	0x3c31844d	0.010834766
32	0xbb5d77e7	-0.0033793391
33	0x3bf9b6d2	0.007620671
34	0x3c93f600	0.018061638
35	0x3c16e20a	0.009209165
36	0x3c0384cf	0.0080272695
37	0xbb91105b	-0.0044269986
38	0xbbb2bc70	-0.0054545924
39	0x3c301b12	0.010748642
40	0xbb893bb9	-0.0041880277
41	0xbc161646	-0.009160584
42	0x3c280c47	0.010256833
43	0xbbcc29f4	-0.006230587
44	0x3c2a9b0f	0.010412945
45	0xbc050c33	-0.008120584
46	0x3c2d5fc6	0.010581916
47	0x3c077ef0	0.00827001
48	0xbc2c9365	-0.0105331885
49	0x3b85b52d	0.0040804357
50	0x3c5498ac	0.012975853
51	0xbc971f54	-0.018447556
52	0x3c136f69	0.00899873
53	0xbb70d555	-0.003674825
54	0xba4533cd	-0.00075226725
55	0x3c70e885	0.0147038745
56	0xbc68c9ea	-0.014208296
57	0x3b1a51d8	0.0023547318
58	0xbbd70a97	-0.0065625417
59	0xbc413625	-0.011792694
60	0x3b323f8f	0.0027198528
61	0x3aa039c5	0.0012224248
62	0x3c5135b3	0.012769151
63	0x3ba7e4c0	0.0051237047
64	0xbc8cec20	-0.017202437
65	0xbb63d4e9	-0.0034764356
66	0xbc68854f	-0.0141919395
67	0xbbd0f669	-0.0063770306
68	0x3b79eac0	0.0038134307
69	0xbba3c92f	-0.004998348
70	0xbbb51bab	-0.00552698
71	0x3c9bf741	0.019038798
72	0x3c9cac30	0.019125074
73	0xba99d0be	-0.0011735184
74	0xbc2cab73	-0.010538924
75	0xbc5a45eb	-0.013322334
76	0xbc2c01e1	-0.010498495
77	0xbbc96cc5	-0.0061469995
78	0x39281ccd	0.00016032458
79	0x3c2711de	0.010197131
80	0x3bcbb8b5	0.006217087
81	0x3aaf0769	0.0013353649
82	0xb93d6d85	-0.00018065244
83	0x3afd68b9	0.0019333578
84	0x3c43a826	0.011941945
85	0xbbaa828e	-0.0052035516
86	0x3b3f50cf	0.0029192453
87	0x3bd21bc9	0.0064120037
88	0xbb6514d5	-0.0034955044
89	0x3bc993d5	0.006151656
90	0x39aa0942	0.00032431824
91	0xbab0c07b	-0.0013485098
92	0xbc1197b7	-0.008886269
93	0x3c14f06c	0.009090524
94	0xbc46b174	-0.012127269
95	0xbb00fac6	-0.0019680723
96	0x3ac18ea9	0.0014767247
97	0x3c53f1ca	0.012936065
98	0xbc44ff99	-0.01202383
99	0xbc136b19	-0.008997702
100	0x3b8ce396	0.0042995913
101	0xbb8dee85	-0.0043314123
102	0xbc4696e6	-0.012120938
103	0x3c687b4a	0.014189551
104	0xbc216214	-0.009850044
105	0xbc69273e	-0.0142305475
106	0x3b89d447	0.0042062136
107	0x3c09a52b	0.0084011955
108	0xbc8bb234	-0.017052747
109	0xbc26da66	-0.010183906
110	0xb81bbc17	-3.7130052e-05
111	0xbc50554f	-0.012715652
112	0xbafa6147	-0.0019102477
113	0x3af22a5e	0.0018475761
114	0x3bb6f6e0	0.005583629
115	0x3c86c23c	0.01645004
116	0x3c2f3577	0.010693899
117	0x3c39c469	0.011338332
118	0x3bf486b3	0.0074623465
119	0x3bd2b95c	0.006430788
120	0xbbc85073	-0.006113106
121	0x3c1bf575	0.009518971
122	0x3b8cdf14	0.004299054
123	0x3b1eb8e1	0.0024219083
124	0x3c73fccc	0.014891814
125	0x3adc8850	0.0016825292
126	0xba6d6a35	-0.00090566586
127	0x3b70f854	0.003676911
128	0xbc3178f8	-0.010832064
129	0xbc9255b3	-0.01786313
130	0xbc2d88e0	-0.010591716
131	0x3b3867de	0.0028138082
132	0xbbc28246	-0.00593594
133	0xbc1bfb66	-0.009520387
134	0x3a19c672	0.00058660575
135	0x3c055b7e	0.008139489
136	0x3c8fb92c	0.017544352
137	0x3c385a40	0.011251986
138	0x3c07212b	0.008247654
139	0x3c1dca2c	0.009630721
140	0x3ba5db1e	0.005061521
141	0x3b91ed1f	0.004453316
142	0xbb8db6d6	-0.0043247743
143	0xbc4823ae	-0.012215538
144	0x3aecda66	0.0018070459
145	0xba286ba1	-0.00064247294
146	0xbc02c264	-0.007980917
147	0xbc361d00	-0.011115313
148	0xbb386293	-0.0028134927
149	0xbc745393	-0.014912504
150	0xbc1117f2	-0.008855807
151	0x3b004b29	0.001957605
152	0xbc8ca000	-0.017166138
153	0x3b8846bd	0.0041588233
154	0x3c3e0fd7	0.011600456
155	0x3aa01e5c	0.0012216079
156	0xb9dbe2cc	-0.00041939912
157	0xbc6b08b0	-0.014345333
158	0xbc93b019	-0.018028306
159	0x3b376d8d	0.0027988881
160	0xbbfc8a90	-0.0077069476
161	0xb934110e	-0.00017172491
162	0x3bbf26fb	0.0058335043
163	0xbbe53b8c	-0.006995624
164	0xbbf1581b	-0.0073652393
165	0xbbe0e1ea	-0.0068628686
166	0xbae86c15	-0.0017732406
167	0xbbf7466c	-0.0075462367
168	0x3bb4072d	0.0054940195
169	0x3c10adb6	0.008830478
170	0xbaf7565d	-0.0018870343
171	0x3b3caec1	0.0028790685
172	0x3bcce5af	0.0062529664
173	0xbbc7fcc4	-0.00610313
174	0x3bf02e70	0.0073297545
175	0xbc845fff	-0.016159056
176	0xba5ac057	-0.0008344701
177	0xbc992fc9	-0.018699544
178	0xbb50f83b	-0.0031886238
179	0xbb391dbb	-0.002824648
180	0x3b39f102	0.0028372412
181	0x3b043ff8	0.002017973
182	0x3c4d9205	0.012547021
183	0x3b499480	0.003075868
184	0x3abd0a66	0.0014422655
185	0xbbb932ed	-0.005651823
186	0x3b9679f9	0.004592177
187	0x3b9a94eb	0.0047174594
188	0x3c798aeb	0.0152308745
189	0x3bcecce9	0.0063110483
190	0x3a92abc2	0.0011190104
191	0xbba659eb	-0.005076637
192	0x3c92c66b	0.017916879
193	0x3bf7f59d	0.007567121
194	0xbbb0bba6	-0.005393463
195	0xbbf317ee	-0.007418624
196	0x3c08004e	0.008300854
197	0x3b3ddf92	0.002897237
198	0x3c11b6c2	0.0088936705
199	0x3bbec530	0.0058218464
200	0x3aefbc1b	0.0018290313
201	0xbbe22a01	-0.00690198
202	0xbc21ddc2	-0.009879531
203	0xbb9d09fb	-0.0047924495
204	0xbc0a00ad	-0.008423013
205	0xbc93f1bc	-0.018059604
206	0x3bb90cf2	0.005647295
207	0xbbd20244	-0.0064089615
208	0x3c5f5464	0.01363096
209	0xbac4cc6e	-0.0015014538
210	0x3b80831b	0.003921879
211	0xbc97d3c6	-0.018533599
212	0x3b621e6e	0.0034503
213	0xbb8c3747	-0.0042790505
214	0xbc0e0d60	-0.008670181
215	0x3c4abd06	0.012374168
216	0x3bde9638	0.00679281
217	0xbab4f71d	-0.0013806556
218	0xbb9cca4f	-0.0047848593
219	0x3b23bd35	0.0024984602
220	0xbb8a8a0a	-0.0042278813
221	0x3b915ef4	0.004436368
222	0x3c30e016	0.010795614
223	0x3b186ed7	0.0023259425
224	0xbb4168bb	-0.0029511887
225	0x3b6a2075	0.0035724912
226	0xbb71c1e2	-0.0036889245
227	0x3b72f359	0.0037071316
228	0x3c3e4c7e	0.011614917
229	0x3b694d92	0.0035599214
230	0x3b3e3677	0.0029024163
231	0xb99c9055	-0.00029862174
232	0xbbbd7252	-0.0057814503
233	0x3c85b3a0	0.016321003
234	0xbc57cebb	-0.013171847
235	0xbb652301	-0.003496349
236	0x3be6f95c	0.007048769
237	0xbb7c6345	-0.0038511318
238	0xbc1e6eb6	-0.00966995
239	0x3bd050fc	0.0063573103
240	0xbbf9dc75	-0.0076251575
241	0xbc87ae30	-0.016562551
242	0xbc8d36c8	-0.017238036
243	0x3aa6741d	0.0012699399
244	0xbc484ca2	-0.012225302
245	0xbb92d014	-0.0044803713
246	0xbbd59d6e	-0.006519011
247	0x3bf04442	0.0073323557
248	0xbb92813d	-0.004470973
249	0x3b691320	0.0035564378
250	0xbc0a0729	-0.008424559
251	0x3c22fffb	0.009948726
252	0xbc452ce6	-0.01203463
253	0xbc851e63	-0.016249841
254	0xbc18d7a1	-0.009328754
255	0xbb709c66	-0.0036714314

u_bias.weight f4 [944, 1]
0	0xbb00306d	-0.0019560114
1	0x3c0400a9	0.008056798
2	0x3aecce1b	0.0018066795
3	0x3bd0277b	0.0063523627
4	0xbbccfa0b	-0.0062553934
5	0x3bf8016f	0.0075685303
6	0xba3a291e	-0.0007101464
7	0xbb24a5a5	-0.0025123146
8	0x3bae9f20	0.005329028
9	0x3c57c7f8	0.013170235
10	0x3c4e6ba5	0.012598907
11	0x3b8633a0	0.0040955096
12	0xbc3f7fb3	-0.011688161
13	0xbba86bbe	-0.005139797
14	0x3c2007e1	0.0097675035
15	0xbc4f5629	-0.0126548195
16	0x3bbcc28f	0.005760498
17	0xbb73ac2a	-0.0037181475
18	0x3c671b7d	0.014105675
19	0xbbc460b8	-0.005992975
20	0x3b3f9ebe	0.0029238905
21	0x3c23d439	0.009999328
22	0x3bd1e284	0.0064051766
23	0x3bc41ffe	0.005985259
24	0x3adc273e	0.0016796363
25	0xbaa07db3	-0.0012244493
26	0x3b4e4bbe	0.0031478251
27	0x3c161ea7	0.0091625815
28	0xba8185a0	-0.0009881742
29	0x3aa09966	0.0012252748
30	0xbbdda75c	-0.0067643356
31	0x3bc052f9	0.005869266
32	0x3c791089	0.015201696
33	0xbb3bbc7d	-0.0028646283
34	0x3bcec4c7	0.006310079
35	0xb9535619	-0.00020154602
36	0xbc238bb0	-0.009982035
37	0xbb946531	-0.0045286645
38	0x3b718262	0.0036851396
39	0x3b8981c6	0.0041963784
40	0x3ba7caef	0.005120627
41	0xbc801211	-0.015633615
42	0xbc8dff10	-0.017333537
43	0xbb80b577	-0.0039278823
44	0xbc8f3d2f	-0.01748523
45	0x3ba15704	0.004923703
46	0x3bfa4f21	0.0076388274
47	0x3b81b1ba	0.0039579542
48	0x395070f3	0.00019878503
49	0xbb910396	-0.0044254763
50	0x3baa31b3	0.005193913
51	0xbc2d38cf	-0.010572626
52	0xbb814fb4	-0.003946269
53	0x3ac147b0	0.0014746096
54	0x3c41bb7b	0.011824484
55	0x3c20a10e	0.009804023
56	0xbb71e9ae	-0.0036912966
57	0xbc61f0ea	-0.013790349
58	0xbc2c89cf	-0.010530903
59	0xbc741eb7	-0.014899901
60	0xbae25806	-0.0017268665
61	0x3c3dff39	0.011596494
62	0xbbf6992e	-0.0075255847
63	0x3bf42022	0.0074501196
64	0x3c40c20f	0.011765017
65	0x3c58f13d	0.013241109
66	0xbaeb76d3	-0.001796449
67	0xbc0c9897	-0.008581302
68	0xbb8b8e0f	-0.004258878
69	0x3c23d47a	0.009999389
70	0x3bc4ef57	0.006009977
71	0x3b737059	0.0037145822
72	0x3b2cd8f6	0.0026374436
73	0xbb2723e4	-0.002550357
74	0x3bd04299	0.0063555953
75	0xbc4b6f17	-0.012416623
76	0xbbaec04a	-0.0053329812
77	0x3a49a9be	0.0007692835
78	0xbacc90d5	-0.0015607128
79	0xbc4f8085	-0.012664919
80	0xbb5a22ee	-0.003328498
81	0x3ba58a12	0.0050518597
82	0xbada48bd	-0.0016653758
83	0xbc099b9f	-0.008398919
84	0x3bcd342e	0.006262324
85	0x3c2418b7	0.010015658
86	0x3c622d50	0.013804749
87	0xbc2c8945	-0.0105307745
88	0xbc29e1cf	-0.010368778
89	0xbbe5e87d	-0.00701624
90	0x3c60a3b7	0.013710908
91	0xbc60e9a2	-0.013727577
92	0x3c886992	0.016651902
93	0x3b346dbc	0.0027531227
94	0x3c6dade7	0.014506794
95	0x3c561761	0.013067097
96	0x3a53a044	0.00080728927
97	0xbc5c20b2	-0.01343553
98	0xbc1abcac	-0.009444397
99	0xba937e39	-0.0011252827
100	0xbc1fb439	-0.009747558
101	0x3b5596c0	0.0032591075
102	0x3b88e36c	0.0041775014
103	0xbc009ed1	-0.007850365
104	0xbc840b11	-0.016118558
105	0xbbbd167d	-0.005770503
106	0xbc0f1453	-0.008732873
107	0xbac5ec17	-0.0015100267
108	0xbab93abe	-0.0014131886
109	0xbc25ea49	-0.010126659
110	0xbb81c746	-0.003960523
111	0xbc8a179e	-0.016856965
112	0x3c25ae0a	0.010112295
113	0xbbe3c1cf	-0.006950594
114	0x3bd226fc	0.0064133387
115	0xbbd1078a	-0.0063790726
116	0x3bac467d	0.0052574263
117	0xbc08bcf9	-0.008345836
118	0x3bfe4bfd	0.0077605234
119	0xbb62536e	-0.0034534591
120	0x3a917605	0.0011097795
121	0xbab8951e	-0.0014082526
122	0xbbd1e2e6	-0.006405222
123	0x3b601ec4	0.0034198025
124	0x3bd846b7	0.0066002267
125	0x3be8607e	0.007091581
126	0x3a801522	0.0009771923
127	0x3bb22d8a	0.0054375576
128	0x3c9148be	0.017734881
129	0x3c0ae547	0.008477516
130	0x3b4f5818	0.0031638201
131	0xbab98b54	-0.0014155903
132	0xbc12ef2b	-0.008968155
133	0x3c93706f	0.017997948
134	0x3c0b02e4	0.008484576
135	0xbbf43c5e	-0.0074534854
136	0xb9c0c5ea	-0.0003676855
137	0xbbe45512	-0.006968149
138	0x3b644a7b	0.0034834433
139	0x3c3364f0	0.010949358
140	0x3c959a5f	0.018262086
141	0x3c266c61	0.0101576755
142	0xbc17acc2	-0.009257497
143	0x3c436d0a	0.011927852
144	0xbbb81692	-0.005617925
145	0x3bc868cb	0.006116008
146	0xbc02bbca	-0.007979343
147	0xb8bbea74	-8.960525e-05
148	0x3bd5054f	0.006500877
149	0xba8f5841	-0.0010936336
150	0x3ac00945	0.00146512
151	0x3b84635f	0.0040401663
152	0xba893265	-0.0010467289
153	0x3bc56309	0.006023769
154	0x3c215744	0.009847466
155	0x3ac05627	0.0014674113
156	0x3af3a78a	0.0018589359
157	0x3c1ada3d	0.009451446
158	0xbc404100	-0.011734247
159	0xbb9c3f96	-0.004768322
160	0x3c9b7d2b	0.018980583
161	0x3b0205e7	0.0019839944
162	0xbb65e03c	-0.003507628
163	0xbc1c0567	-0.009522772
164	0xbc892a67	-0.016743852
165	0x3b4e7c7e	0.0031507309
166	0x3c391786	0.011297112
167	0xbbb916fe	-0.005648493
168	0xbc215efc	-0.009849306
169	0xbb999b48	-0.0046877004
170	0x3c3cb70b	0.01151825
171	0xbc071b4a	-0.008246252
172	0x3b6da335	0.003626061
173	0xbc9f8df7	-0.019476874
174	0xbc4e2dde	-0.012584178
175	0xb87a62f2	-5.9696795e-05
176	0x3c5bc38a	0.013413319
177	0x3c5049eb	0.012712936
178	0xbbd2444a	-0.006416832
179	0x3ca1000d	0.019653345
180	0xbb533278	-0.0032226127
181	0xbc0fcbf8	-0.008776657
182	0xbb9a40a6	-0.0047074137
183	0xba8f2b0b	-0.0010922862
184	0x3c31055e	0.010804502
185	0x3afe844a	0.0019418087
186	0x3ba48839	0.005021122
187	0xbbe124af	-0.006870828
188	0x3bfdedd7	0.0077493
189	0xbba4baab	-0.0050271354
190	0x3b87fabf	0.0041497643
191	0x3bb55f86	0.005535069
192	0x3bb0cd29	0.0053955507
193	0x3b4d48f9	0.0031324013
194	0xbc74e025	-0.014946018
195	0x3b25258e	0.0025199386
196	0xbaa30c73	-0.0012439623
197	0x3b54f11d	0.0032492348
198	0xbc061fc8	-0.008186288
199	0x3ba2dfc4	0.0049705226
200	0x3ad4fb2f	0.0016249175
201	0x3c8ac42f	0.01693925
202	0x3c56a002	0.013099672
203	0x3bda3392	0.0066589797
204	0xbc559301	-0.013035537
205	0x3c08e1a2	0.008354576
206	0x3bdbe5c1	0.0067107384
207	0xbbeffcf2	-0.0073238546
208	0xbb84a67a	-0.004048166
209	0xbca268f4	-0.019825436
210	0xbbb46889	-0.0055056256
211	0xbbd652c5	-0.0065406286
212	0x3ca09997	0.019604487
213	0x3bd0f6d7	0.006377082
214	0xbb3cbc8f	-0.0028798913
215	0xbaba133b	-0.0014196405
216	0xb794f1ad	-1.7755514e-05
217	0xbc2a2f1d	-0.010387209
218	0xbbf754c6	-0.0075479476
219	0xbc96e6dd	-0.018420631
220	0xbbbcfa94	-0.005767176
221	0xbb8ed0b4	-0.0043583754
222	0x3a39e6fe	0.00070916105
223	0xbba9e48a	-0.0051847147
224	0x3a98dfdd	0.0011663396
225	0xbc97eefb	-0.018546572
226	0xbc215c0d	-0.009848607
227	0xbb2296e0	-0.0024809167
228	0xbac5ed05	-0.0015100545
229	0xbbd19f59	-0.0063971695
230	0xbabb9420	-0.0014311112
231	0x3a76aa19	0.0009409502
232	0xba9e1cd5	-0.0012063036
233	0x3b84e5e9	0.0040557277
234	0x3c0a7ba6	0.008452332
235	0x3c643d8b	0.013930689
236	0x3aedfa37	0.0018156235
237	0x3c8525c6	0.016253363
238	0x3b1c4783	0.0023846335
239	0xbbe0c81b	-0.006859792
240	0x3c67c7d2	0.014146762
241	0x3c850415	0.016237298
242	0x3c06d4cd	0.008229447
243	0xbb8a0329	-0.0042118025
244	0x3c17af8b	0.009258161
245	0x3b964af7	0.004586573
246	0x3c0170b9	0.00790041
247	0x3b811e64	0.0039403904
248	0xbbe6869d	-0.00703509
249	0xbc4429f4	-0.011972893
250	0xba6c433c	-0.0009012704
251	0x3c200a78	0.009768121
252	0xbbe1d670	-0.006892018
253	0xbbe60bc7	-0.007020447
254	0xbbcf2a53	-0.006322184
255	0x3ba442fe	0.005012869

i_bias.weight f4 [1654, 1]
0	0xbbc3a8c6	-0.005971047
1	0xbbf28319	-0.007400882
2	0x3ba32138	0.004978325
3	0xbb92beb7	-0.0044783014
4	0xbbb99855	-0.0056639113
5	0xbc855307	-0.016274942
6	0xba83a91f	-0.0010044909
7	0xbc823830	-0.015895933
8	0x3c789a73	0.015173542
9	0xbc001d23	-0.007819447
10	0xba759a03	-0.0009368958
11	0x3c4bb8f9	0.012434238
12	0x3b33940b	0.0027401473
13	0x3ae3448f	0.0017339158
14	0xbb1ffa29	-0.0024410582
15	0xba888069	-0.0010414246
16	0xbc26ac26	-0.010172879
17	0xbc186754	-0.009301979
18	0xbc1c56e6	-0.009542203
19	0x3aa63ca1	0.0012682864
20	0x3c67e630	0.014154002
21	0xbc26d3e7	-0.010182357
22	0x3c4d07e9	0.012514093
23	0xbca32049	-0.019912856
24	0xbc55942b	-0.013035814
25	0xbc9f851f	-0.019472657
26	0x3af19acc	0.0018432974
27	0x3afe2400	0.0019389391
28	0x3ba70727	0.005097288
29	0x3beccd1c	0.0072265994
30	0x3c75423e	0.014969407
31	0x3bcce762	0.006253169
32	0xbc1233ec	-0.008923512
33	0x3c91519d	0.017739112
34	0xbaa0b2bd	-0.0012260299
35	0xbbf2fb15	-0.007415185
36	0x3aad19a6	0.0013206496
37	0x3c9966e0	0.018725812
38	0x3c8a8e52	0.016913567
39	0x3c5a4ab0	0.013323471
40	0xbb63b5fc	-0.0034745922
41	0xbc2d3477	-0.010571591
42	0x3c7e5cc9	0.015525051
43	0x3c1a1a3b	0.009405668
44	0x3c0a8cb8	0.0084564015
45	0x39a11590	0.00030724378
46	0x3c111385	0.0088547515
47	0xbb91a1e2	-0.0044443468
48	0xbb585f86	-0.003301592
49	0x3a7eba23	0.00097170676
50	0xbbf4d565	-0.0074717277
51	0x3c8fdcad	0.017561281
52	0x3c031957	0.008001647
53	0xbba290d7	-0.004961114
54	0xbc510981	-0.012758614
55	0xbbba79f9	-0.00569081
56	0xbb467c38	-0.0030286442
57	0xbc12fbbf	-0.008971154
58	0x3c8f313b	0.01747953
59	0xbb0d77e6	-0.0021586358
60	0x3c844ead	0.016150797
61	0x3c41a735	0.01181965
62	0xb9953e64	-0.0002846598
63	0x398d2d63	0.00026927431
64	0xbaeeb069	-0.0018210533
65	0xb9fca082	-0.00048184773
66	0x3bb23a70	0.005439095
67	0x3a5202e1	0.0008011293
68	0x3b8c61ae	0.0042841053
69	0x3c968fd7	0.018379135
70	0x3c2848a4	0.010271225
71	0xbc3e9e04	-0.011634354
72	0xbc1222f0	-0.008919463
73	0xbbf1b767	-0.0073765996
74	0xbc7f7b83	-0.015593412
75	0x3ba650f8	0.00507557
76	0x3be44d3d	0.0069672153
77	0x3bdb6870	0.0066957995
78	0xbb022efd	-0.0019864433
79	0x3c4dd965	0.012564038
80	0x3c3e00f0	0.011596903
81	0x3c870c9c	0.016485505
82	0xbab33924	-0.0013673645
83	0x3b02b50d	0.001994434
84	0xbb42659b	-0.0029662612
85	0x3bf618f5	0.0075102993
86	0x39c904b4	0.00038341212
87	0x3bd27de7	0.0064237
88	0xbc50a96c	-0.012735706
89	0xbbd19422	-0.0063958326
90	0xbc237a87	-0.009977943
91	0x3c45026d	0.012024504
92	0xbbb7bc30	-0.0056071505
93	0xbc93458b	-0.017977497
94	0x3c5b2479	0.013375395
95	0x3c06c824	0.008226428
96	0x3c12e390	0.008965388
97	0xb910a020	-0.00013792561
98	0x3c9aa28e	0.01887634
99	0xbae2c200	-0.0017300248
100	0xba56c577	-0.00081928767
101	0xbbd5ada0	-0.006520942
102	0x3c9827a3	0.018573588
103	0x3ba18c36	0.0049300445
104	0x3b013a2f	0.0019718518
105	0x3980f007	0.00024592897
106	0xbbccfb59	-0.006255549
107	0xbba9f557	-0.0051867175
108	0xbadc1b89	-0.0016792874
109	0x3b3ddb04	0.0028969655
110	0x3c06e608	0.008233555
111	0xbbab2f76	-0.0052241636
112	0x3a2a003c	0.000648502
113	0xbc11faaa	-0.008909861
114	0x3c120f53	0.008914786
115	0x3ba6d261	0.005090997
116	0xba9b1a20	-0.0011833347
117	0xbc7c1530	-0.015385911
118	0xba6200c9	-0.0008621333
119	0x3b8a9cb5	0.0042301067
120	0x3ae7e279	0.0017691395
121	0xbc1086c8	-0.008821197
122	0xbbb8dfea	-0.005641927
123	0xbc80f5ca	-0.015742201
124	0x3c37f260	0.01122722
125	0x3c3f448e	0.01167406
126	0xbc218e72	-0.009860622
127	0x3c94f759	0.01818435
128	0xbc1f5bd2	-0.0097264815
129	0xbc6dc582	-0.014512422
130	0x3c20e0bd	0.009819207
131	0xbbc4899b	-0.005997849
132	0xbbf75c52	-0.0075488472
133	0xbc02d6aa	-0.00798575
134	0xbbc4106a	-0.005983402
135	0xbac51246	-0.0015035353
136	0xbb9d6c9f	-0.0048042084
137	0x3c20e99f	0.009821325
138	0xbc190156	-0.009338697
139	0x3c2dca72	0.010607349
140	0x3aabed80	0.0013117045
141	0x3c009911	0.007848994
142	0xbc650dee	-0.013980372
143	0xbc4f1302	-0.012638809
144	0xbb8ebb5d	-0.0043558315
145	0x3c52d6f2	0.01286863
146	0xbbe4bfc9	-0.0069808704
147	0x3c2448fc	0.010027166
148	0xbb6ef000	-0.003645897
149	0x3c1a6ad7	0.009424887
150	0x3c4bba81	0.012434603
151	0x3c2c5484	0.010518197
152	0x3bef3d6b	0.0073010228
153	0x3c3666d5	0.0111329155
154	0xbc540f7e	-0.012943147
155	0x3b7a3d13	0.0038183376
156	0xbb8f538b	-0.004373973
157	0xbc02dc0d	-0.0079870345
158	0x3b607b82	0.0034253304
159	0xbbe67b57	-0.007033746
160	0x3b15dc2f	0.0022866835
161	0x3c32f76f	0.010923251
162	0xbc3401dc	-0.010986771
163	0xbba60eb0	-0.005067669
164	0xbc6926f7	-0.014230481
165	0x3c422ccd	0.011851502
166	0x3b434ca2	0.0029800315
167	0xbbac03a0	-0.0052494556
168	0x3c8aa702	0.016925339
169	0xbb3f7d2a	-0.002921889
170	0x3c666cee	0.014064057
171	0xbc401140	-0.011722863
172	0xbb9845d6	-0.004646997
173	0xbb09e57b	-0.0021041322
174	0xbc5bd625	-0.013417755
175	0xba8dbb1b	-0.0010813208
176	0x3b074af6	0.0020644045
177	0x3c316ae9	0.010828712
178	0x3b993118	0.004675042
179	0xbc46a7ee	-0.0121249985
180	0x3b4611e2	0.0030223061
181	0x3ba4b3e7	0.005026329
182	0xbb55614b	-0.0032559212
183	0x39bb1317	0.00035681642
184	0x3bb8f15e	0.0056440076
185	0x39927e0d	0.00027941205
186	0xbbcee2b4	-0.006313646
187	0xbb86d8ff	-0.0041152234
188	0x3c1439e2	0.009047003
189	0xbbec028f	-0.0072024534
190	0x3ad2a013	0.0016069434
191	0x3bc3c3b4	0.0059742574
192	0xba959053	-0.001141081
193	0x3c32ec07	0.010920531
194	0xbbb4d66d	-0.0055187256
195	0x3baba5cb	0.00523827
196	0xbc552e78	-0.013011567
197	0xb96f995d	-0.00022849948
198	0xbc181db6	-0.009284427
199	0xbc11f547	-0.008908576
200	0x3ad946d7	0.0016576898
201	0xbc7aa84b	-0.015298913
202	0xba1185ab	-0.0005551229
203	0xba87213c	-0.0010309587
204	0x3bc150f7	0.0058995443
205	0xbb289446	-0.0025723143
206	0xbbf49a98	-0.007464718
207	0x3a958689	0.0011407892
208	0x3c127ce4	0.008940909
209	0x3a8099c4	0.0009811451
210	0xbab62e70	-0.0013899338
211	0x3bb57607	0.0055377516
212	0x3a0c60cf	0.0005355002
213	0x3b83bf95	0.004020641
214	0x3a96b920	0.0011499263
215	0x3b055fa3	0.0020351193
216	0x3b82b977	0.0039893943
217	0xbc29af9d	-0.010356811
218	0x3c23a95e	0.009989111
219	0x3ba7b80a	0.0051183747
220	0x3b625210	0.0034533776
221	0x3ba769bd	0.0051090405
222	0x3c451594	0.01202907
223	0x3ae59013	0.0017514251
224	0xbba455be	-0.005015104
225	0xbb992b7a	-0.0046743723
226	0xbc3d3baf	-0.011549874
227	0x3c18e0f5	0.009330978
228	0xbc0a47cd	-0.00843997
229	0x3bbfa722	0.005848781
230	0xbc0cd3d6	-0.0085954275
231	0x3c698353	0.014252502
232	0xbc26a63d	-0.01017147
233	0x3c9e8e8b	0.01935508
234	0x3b75a7d9	0.0037484078
235	0xbb7dc173	-0.003872004
236	0x3bbf7dd7	0.0058438587
237	0x3afd9b1e	0.0019348597
238	0x3b8fae44	0.0043847878
239	0xba1fcd22	-0.0006095936
240	0x39270dc2	0.00015931486
241	0xbc74411e	-0.014908103
242	0x3c870558	0.01648204
243	0xbbb3a734	-0.0054825787
244	0xbb0eef9c	-0.0021810299
245	0x3c601612	0.013677137
246	0xb9f29d2e	-0.00046274945
247	0x3b0fcd7f	0.0021942554
248	0xbb552c47	-0.0032527612
249	0xbc485fd4	-0.012229878
250	0x39fdbfb8	0.00048398762
251	0xbb755df8	-0.0037440043
252	0x3a3e4bd9	0.0007259227
253	0x3bcaee35	0.0061929473
254	0xbaafeb70	-0.0013421606
255	0x3c40a9b4	0.01175921
